presentations/2025-06-WinlabInterns-ML2/examples/lenet5.onnx (onnx, 14091 bytes, 6 tensors)

0.weight f4 [4, 1, 5, 5]
000000 07 82 c5 bd 08 b4 08 3e 4d e4 65 bc 8d 2d 56 3d
       -0.096439414 0.13349926 -0.014031482 0.052289534
000010 9a c3 03 bd c0 d0 d9 bc 57 30 b8 3d 97 45 34 be
       -0.032168962 -0.026588798 0.08993595 -0.17604671
000020 a3 33 fc bd 67 be 07 bd 67 26 97 38 60 22 88 3d
       -0.123145364 -0.033140566 7.207394e-05 0.066471815
000030 a0 d0 07 be e7 b9 51 3c 1a 5e 25 be 10 13 15 be
       -0.13263178 0.01280067 -0.16149178 -0.14558053
000040 33 51 6a 3c 57 c7 82 3d da 11 ba 3d 58 b3 0b be
       0.014301586 0.06385677 0.09085436 -0.13642633
000050 fa 1c 47 3e 9d 91 95 bd b3 32 b6 3d 8a 9f e0 bd
       0.19444647 -0.07303164 0.08896389 -0.1096793
000060 33 e8 40 3c 0d 4a 79 bd 50 38 f8 3d ed 1f ad bd
       0.011774111 -0.060861636 0.12120116 -0.08453355
000070 9b e2 16 be 92 80 08 3e c0 54 2f 3e 1a 3e 37 3d
       -0.1473488 0.13330296 0.17122173 0.04473696
000080 aa 41 f9 bd 32 17 06 be 70 b6 45 be 50 67 22 3e
       -0.121707276 -0.13094786 -0.19307876 0.15859723
000090 cd 7b c2 bd cd ee 1a be 73 1a 34 3e 9a 4a 0f bd
       -0.094962694 -0.15130158 0.17588215 -0.034983255
0000a0 87 75 cb 3d 33 32 d3 3c 07 a3 bd 3d cd 84 20 3b
       0.09934526 0.025780773 0.092596106 0.0024493218
0000b0 b3 95 72 3d 07 51 40 3d 87 1d 45 be b5 7e 1a be
       0.059224796 0.046952274 -0.19249545 -0.15087397
0000c0 73 84 58 3d 90 d0 18 3e 33 1f ea 3a e7 3a 2d 3e
       0.05286069 0.1492331 0.0017862081 0.16917
0000d0 27 b0 bb bd c0 b5 94 3c 2d 31 0b be 6d fb d8 bd
       -0.09164458 0.018153071 -0.13592978 -0.10594831
0000e0 40 92 60 3d 7a e6 43 bd 17 27 e4 3d 00 12 95 3c
       0.054826975 -0.04782722 0.11140268 0.01819706
0000f0 7f 85 10 3e d0 7b 36 be 45 9e 2c 3e c0 b6 47 be
       0.14113425 -0.17820668 0.1685725 -0.19503307
000100 e7 90 93 3c 40 d4 37 be d3 21 4d 3d 7a 81 5d 3d
       0.01801343 -0.1795206 0.050081085 0.054078557
000110 c0 90 41 3e d3 84 83 3d cd cc 0b 3b ca ad a6 3d
       0.18902874 0.064218186 0.0021331788 0.081386164
000120 00 a4 03 3d cd e3 28 3e c0 ed 80 bc f3 7b ca 3c
       0.032138824 0.16493149 -0.015738368 0.024717307
000130 cd 9b a3 bd c0 ae ee 3c 80 b2 17 3c 30 cd 45 3e
       -0.07988701 0.029136062 0.009258866 0.19316554
000140 cd 92 2a bc 4f 8c 12 be 83 3d b1 bd 50 9a 2b be
       -0.010410977 -0.14311336 -0.086543106 -0.16758084
000150 cb 71 3d 3e 8a ab bc bd 60 f7 5f bd 48 5d 02 be
       0.1850044 -0.09212406 -0.054679275 -0.12730896
000160 2f 80 28 3e 63 0d c9 bd 33 64 0f 3c d8 0a 0f be
       0.16455148 -0.098170064 0.008751917 -0.1396898
000170 2a 65 e5 3d 0a 63 aa 3d 13 8c 21 3d 88 80 44 be
       0.11200936 0.083196715 0.039440226 -0.19189656
000180 53 90 82 3d 0d a1 dd bd ea de 41 3e 50 67 b1 3d
       0.06375184 -0.108217336 0.18932691 0.086622834

0.bias f4 [4]
000000 13 84 8e 3d c7 a2 6b 3d 33 47 f5 bd cd 34 69 bd
       0.06958785 0.057528283 -0.11976471 -0.05693512

2.weight f4 [12, 4, 5, 5]
000000 f3 a9 7a bd 6d f5 bc 3c 93 7d ed 3c c0 07 aa bc
       -0.061197232 0.023066247 0.028990543 -0.020755649
000010 0f 0c cc 3d 10 8e 97 bd 85 e9 c9 3d 8a d4 09 bd
       0.099632375 -0.07400143 0.098589934 -0.03364996
000020 ad 61 b0 bd 73 69 44 bc 40 f0 a7 3c da 64 94 3d
       -0.0861238 -0.011988032 0.020500302 0.072457984
000030 68 56 a3 3d ba b2 43 bd 73 04 97 bc ea 3f b1 3d
       0.07975465 -0.04777787 -0.018434739 0.08654769
000040 ad 32 33 bd 00 12 43 bc 0d 0c 0b bd 90 af 45 3d
       -0.0437495 -0.011906147 -0.03394704 0.048263133
000050 ca 2e c9 bd a0 b4 78 bd 50 1c ac bd 6a 41 58 3d
       -0.098233774 -0.060719132 -0.08403838 0.05279676
000060 43 88 64 3d e7 30 d7 bb b2 cf 9c 3d 33 ba ca bc
       0.05579401 -0.006567109 0.07656802 -0.02474699
000070 af a5 8a 3d 33 ff d2 bb 83 e4 82 3d 8a 38 60 3d
       0.06769883 -0.0064391135 0.063912414 0.05474142
000080 67 02 05 3d 4d c8 e1 bc 32 fa 8b bd 5a dd 65 3d
       0.032472994 -0.027561331 -0.0683483 0.0561193
000090 52 f4 8f bd 6f c8 b6 bd c0 40 29 3d 9a 7d 66 bc
       -0.07029022 -0.089249484 0.041321516 -0.014068032
0000a0 ba f7 be bd 8b c3 c0 bd c0 0e c6 3d e7 70 c5 3b
       -0.09324594 -0.09412297 0.09670782 0.006025422
0000b0 dd 02 a7 3d 37 07 58 3d d0 64 2e 3d d3 21 e2 bc
       0.08154843 0.052741256 0.04257661 -0.02760402
0000c0 bb 1f 8f bd 00 aa 57 3b a8 83 bf 3d 13 ac 8f bc
       -0.06988474 0.0032907724 0.09351283 -0.017538106
0000d0 43 61 ae bd 10 f4 c8 3d f3 77 16 bd ed 94 38 bd
       -0.08514645 0.09812176 -0.036735486 -0.0450639
0000e0 50 03 8d 3d 80 59 e4 bc fa ef b1 3c 8d 82 74 3c
       0.068853974 -0.027874708 0.021720875 0.014923704
0000f0 23 8d a3 3d 7a d2 c1 bd 98 5f 9e 3d f0 0c 50 bd
       0.07985904 -0.09463973 0.07733077 -0.05079359
000100 0d 91 84 bc 33 33 6a b7 f7 7b 72 3d e0 6f a7 3c
       -0.016182447 -1.3959408e-05 0.059200253 0.020439088
000110 2d 43 bb bd ba 29 f7 3c 58 9c 8d 3d 73 5a 72 3d
       -0.09143672 0.030171264 0.06914586 0.05916829
000120 1a e1 33 bd 8f a1 c9 3d 3d 63 73 3d 1a 3d 17 3d
       -0.043915845 0.09845268 0.059420813 0.036923505
000130 b0 a9 bc 3d 4d af 05 3d da 46 4a 3c 9d 0f 10 bd
       0.09212053 0.032637883 0.012345994 -0.03517114
000140 d7 3d 0b 3d 32 fc 87 3d 3a 55 17 bd 23 2f 29 bd
       0.033994522 0.06639899 -0.036946513 -0.04130472
000150 9a e4 e8 3b 67 3a cf 3b 2d 80 1f 3d fb ee bc bd
       0.0071073296 0.006324101 0.038940597 -0.092252694
000160 37 73 0d 3d 1a 29 c2 3d 32 07 a4 bd f0 4f 49 bd
       0.034533706 0.09480496 -0.08009185 -0.0491485
000170 40 fa 7f 3d c7 86 b6 3d 9a 23 25 bc 85 28 b5 3d
       0.062494516 0.089124255 -0.010079289 0.08845619
000180 c3 d9 83 bd 9b 19 bb 3d 40 29 32 bc cd 20 4b 3c
       -0.06438019 0.09135743 -0.010874093 0.012397957
000190 2d ac cc 3d 27 79 de bc 57 85 8e 3d 58 3a b0 3d
       0.099937774 -0.02715738 0.06959026 0.08604878
0001a0 ed b4 94 3d fd 1f 20 bd a0 27 ed 3c 80 a8 bf bc
       0.07261071 -0.039093006 0.028949559 -0.023395777
0001b0 c0 b7 2b bd 27 04 55 bc 60 d3 20 bd 97 df 27 3d
       -0.041923285 -0.013001478 -0.039264083 0.040984716
0001c0 9f 38 be bd 6f 76 87 3d 43 3f 51 bd aa e5 62 bd
       -0.09288143 0.06614386 -0.05108572 -0.055394806
0001d0 4a 0f 89 bd 7a 10 9d 3d 97 1a 27 bd 25 0c c7 bd
       -0.06692369 0.07669158 -0.040796842 -0.09719113
0001e0 3f ef c2 bd e2 34 89 bd e7 4e 61 3c 93 8b 8b bd
       -0.09518289 -0.0669954 0.013751722 -0.06813731
0001f0 ed d7 ac bc a0 7a 27 bd 00 3e a4 3b db ef b2 bd
       -0.021099055 -0.04088843 0.005012274 -0.08737155
000200 30 56 82 bd f7 48 3c bd f3 4c 83 3c 3a 6c b0 3d
       -0.06364095 -0.045968022 0.016027903 0.086143926
000210 a7 21 4e bd d7 ae 95 bd dd 92 21 bd a7 80 61 bc
       -0.050325062 -0.07308739 -0.0394467 -0.013763583
000220 00 08 de ba c7 23 e7 3c 83 66 b3 3d 55 74 87 3d
       -0.001693964 0.028215302 0.08759787 0.066139854
000230 7b 28 bc 3d d7 10 74 bd 63 62 a2 bd ba 63 1c 3d
       0.091874085 -0.059586372 -0.07928922 0.038181044
000240 57 d4 2e 3d 6a 83 78 3d 67 f6 a6 ba e3 4a 13 bd
       0.04268297 0.0606722 -0.0012738229 -0.03596009
000250 9a 5a d2 bc 17 f7 7d 3d 7a 09 ea bc 4d b0 42 3d
       -0.025677968 0.06200322 -0.028568972 0.047531415
000260 ca 43 92 3d 9a be 3f 3b 9a 95 da bc 9a 28 bd bd
       0.07141836 0.0029257894 -0.026682664 -0.0923626
000270 67 4e 36 bd 83 3c ba bd c2 bd 83 3d 57 01 9e bd
       -0.044508364 -0.09093573 0.06432678 -0.07715099
000280 6b 77 b1 bd 38 f4 bf bd 8a d1 0a 3d bd ae 3a bd
       -0.08665355 -0.09372753 0.03389124 -0.0455768
000290 3d 81 78 bd 1f d1 9e 3d e0 87 d1 bc f2 b8 bc 3d
       -0.060670126 0.077547304 -0.025577486 0.09214963
0002a0 e3 c4 97 bd cf 41 99 3d 4d e2 59 3d 6d 57 e2 bc
       -0.074106 0.07483255 0.053194333 -0.027629578
0002b0 0d 23 22 3c ea c1 b1 3d 07 11 ac bd f2 b5 b8 3d
       0.009896052 0.08679564 -0.08401685 0.09019078
0002c0 e8 24 c1 3d a8 05 a0 3d f0 e0 76 3d dd e1 be bd
       0.094308674 0.07813579 0.06027311 -0.09320424
0002d0 a7 b2 ba bc b7 bc 91 bd f3 46 c5 3d 1a e8 cd 3b
       -0.022790266 -0.071160726 0.09632673 0.006283772
0002e0 0d b6 51 3d ad f9 9c bc e7 19 d3 3b 22 42 ad bd
       0.051199008 -0.019162023 0.006442297 -0.084598795
0002f0 da 86 b5 3c 87 f1 5b 3d 17 f2 6b 3d ea 24 92 3d
       0.022159029 0.053697135 0.05760392 0.07135947
000300 92 8c cc bd 0d 88 93 bd b0 15 98 bd 33 d0 cd 3c
       -0.09987749 -0.07203684 -0.074260116 0.025123691
000310 ca a0 51 bd 6d 06 b8 bd f0 9f 87 3d 33 00 f5 bc
       -0.05117873 -0.089856006 0.066223025 -0.029907322
000320 1a c0 15 3c cf 80 c6 3d e0 ea 81 bd 92 d3 95 3d
       0.009140039 0.09692537 -0.06343627 0.073157445
000330 32 84 bf bd 83 e3 60 3d 0d c7 9a 3d d0 17 0f 3d
       -0.09351386 0.054904472 0.07557497 0.03493482
000340 d0 42 88 3d ad a4 b4 bc 13 ea 9e bd 3a 35 10 bd
       0.066533685 -0.02205118 -0.0775949 -0.03520701
000350 9a f3 65 3d 2d 95 d6 3c 9a fa ee bc cd eb 80 bd
       0.05614052 0.02619418 -0.02917223 -0.062949754
000360 f5 f1 90 3d 08 bf 91 bd 6a ea 60 3d 62 7c 89 3d
       0.070774 -0.071165144 0.054911055 0.06713177
000370 ba 66 1c 3d 67 b8 99 bb 9a 9f fc 3b 00 00 57 ba
       0.038183905 -0.004691172 0.0077094557 -0.0008201599
000380 07 86 d4 bc 22 94 8b 3d 63 13 42 bd 7a 08 cb bd
       -0.025942815 0.068153635 -0.04738177 -0.09913726
000390 f8 7b b3 3d 3d 70 4c bd 47 4a 98 3d 00 56 1b bb
       0.087638795 -0.049911726 0.07436042 -0.0023702383
0003a0 5d 66 ba 3d 6a ce 8d bd 20 8a 36 bd 27 30 4f 3c
       0.091015555 -0.06924136 -0.04456532 0.012645758
0003b0 8b 1d c0 3d 6d 75 e3 3c 00 70 42 b9 d7 db 3f bd
       0.09380635 0.027765954 -0.00018543005 -0.046840515
0003c0 5d 0a 27 3d 80 da 4f bd 8d a5 4a bd f3 56 0c 3c
       0.040781368 -0.050745487 -0.049474288 0.008565652
0003d0 1d a5 4d bd 02 8d ab bd a7 d2 89 3c 73 fb 2e bc
       -0.050206292 -0.083765045 0.01682408 -0.010680067
0003e0 13 4a 11 bd 0d df 5c 3c 53 85 f5 bc 8a 37 41 3d
       -0.035471033 0.013480914 -0.0299708 0.047172107
0003f0 30 96 83 3d 9a bb a6 3d 85 e9 81 bd 03 43 4d bd
       0.0642513 0.08141251 -0.063433684 -0.050112735

2.bias f4 [12]
000000 d0 0e 9d bd 4a 4a c9 3d 87 c6 88 3c d3 3f 61 3d
       -0.07668841 0.09828623 0.016696228 0.05499251
000010 27 6a 9d 3c cd 3e 12 bb 5a 1d 5b 3c 00 51 4b 3b
       0.019215656 -0.0022315264 0.013373697 0.0031023622
000020 c0 a4 b1 3c 33 ef 2a 3d 10 a0 9d 3d fa a7 6a 3d
       0.021685004 0.041732024 0.07696545 0.0572891

5.weight f4 [10, 192]
000000 65 90 ff 3b ac f7 23 bd 38 b5 4c bc 12 1f 7e 3d
       0.0077991956 -0.04003112 -0.012494378 0.06204135
000010 0e 31 3a 3d f4 1f 4b 3c be 2d 47 3d 94 df 21 bd
       0.04545694 0.012397755 0.048627608 -0.03951986
000020 c1 95 b4 3c 2c ab 20 bd b6 9a 32 3c f5 63 01 3d
       0.022044064 -0.039225742 0.010901144 0.031589467
000030 bd d3 43 3d f0 d0 19 bd ef e2 63 3d 6f 29 2e 3d
       0.04780935 -0.037552774 0.055636343 0.042519983
000040 46 c1 b9 bc 52 77 56 bd 7c 56 f0 3c e2 28 62 bd
       -0.022675168 -0.052359886 0.029338114 -0.05521477
000050 76 b6 0d bd da d7 f6 bb 2a 2a 58 bd c0 51 85 3d
       -0.034597836 -0.0075330557 -0.052774586 0.06509733
000060 2e ac 72 3d 2c 41 cd bc 84 76 6d 3d 53 05 68 3d
       0.059246235 -0.02505549 0.057974353 0.056645703
000070 79 46 87 bd f1 43 44 3c 60 ff 20 bd 23 94 f2 3c
       -0.066052385 0.011979089 -0.039306045 0.029611653
000080 d2 5b 84 3d 59 26 70 bd b5 9b 9b bc 3d e0 91 3d
       0.06462826 -0.05863032 -0.018995145 0.07122848
000090 83 a9 51 bb 2e 3f 8b bd 00 9c 0b 3c ad 01 17 3c
       -0.0031991906 -0.0679916 0.00852108 0.009216708
0000a0 0d 0e 79 bd 7a 91 4b bc 72 a2 29 3d 2d 29 2a 3d
       -0.060804415 -0.012424821 0.041414686 0.041543175
0000b0 58 2c 36 3d b6 4e 3f bd 9c 18 b3 3c 45 b1 04 bc
       0.044475883 -0.046705924 0.02186232 -0.008098905
0000c0 d2 df 88 3d 65 5f 36 3c d2 fd 3f bd 2f 04 b0 bc
       0.06683315 0.011131142 -0.04687292 -0.02148637
0000d0 2a 23 0d bd 1a 73 57 bd 59 8a 7e 3c 04 85 58 3c
       -0.034457363 -0.052600004 0.015535914 0.013215307
0000e0 67 fe 81 bd f9 47 cb bc e7 a4 f6 3c 9e 49 39 3d
       -0.063473515 -0.024814593 0.030107928 0.045236222
0000f0 29 83 1b 3d ca 7e d3 3c da f4 1b bd 15 da eb bc
       0.03796688 0.025817294 -0.038075306 -0.028790513
000100 f9 4e 83 3d 17 85 89 bd 97 f4 26 bd 35 f2 8c 3c
       0.06411547 -0.06714838 -0.040760603 0.017205337
000110 b9 6b 8f 3b 1f d6 6b 3d 4b 26 6d bc 59 6e 1a bd
       0.004376855 0.05757725 -0.014474462 -0.037702892
000120 e0 47 35 3d 77 13 7b bc 79 7a 91 bd ce 0a 5e bc
       0.044258 -0.015324465 -0.07103438 -0.013552381
000130 bc 58 7f 3d 3b d0 1f 3c b2 fc c3 bc a2 44 af 3c
       0.062340483 0.009754236 -0.023924205 0.021395031
000140 5e 90 db bb 7c 17 bf bc ee de b3 bb 6b 0b 85 3d
       -0.0067005595 -0.023326628 -0.005489222 0.064963184
000150 81 c4 eb bc b0 b3 9f bc 4f 9c 4a 3d 14 20 0a bd
       -0.028780224 -0.019494861 0.049465474 -0.033722
000160 5d bf 57 3d ee 1f 10 bc 74 b1 8c 3c 35 30 21 bd
       0.052672733 -0.008796675 0.01717446 -0.039352614
000170 e2 eb 6f bd b9 e6 64 bd 7a a5 83 bd 86 3a f6 ba
       -0.058574565 -0.055884097 -0.064280465 -0.0018785752
000180 cf c9 15 bd 5d 8c 0f bd 2d 59 4f bd cf d6 e1 bc
       -0.036569413 -0.03504597 -0.050622154 -0.027568249
000190 b7 b4 8f bd 30 a3 07 bd ad 1b 98 3c 7e af c3 bc
       -0.070168905 -0.033114612 0.018567884 -0.023887392
0001a0 3e ce 02 3c e8 d6 6a ba 59 46 1b bd 29 1d 42 bd
       0.007983742 -0.0008958415 -0.037908886 -0.04739109
0001b0 10 4d 5e bd 5c 3e 84 bd 20 b3 fe 3c 58 95 4c bd
       -0.05427271 -0.064572066 0.031091273 -0.049947113
0001c0 3b 05 e1 bc 39 fb 92 bd 5f ce 4e 3d 64 92 93 bc
       -0.027468314 -0.07176823 0.05048978 -0.01801414
0001d0 fd 9a ba 3c 4c e8 5c bd f5 a6 11 3d f4 29 38 bc
       0.022778982 -0.053932473 0.035559613 -0.011240471
0001e0 12 16 86 bc d6 c1 4c bd bb 2d c1 bb 7b 07 a6 bc
       -0.016367946 -0.049989544 -0.005895344 -0.020267239
0001f0 b9 e8 8c bd d3 46 25 3d 8f f3 45 bd c9 8b 5d bd
       -0.06880326 0.040350746 -0.04832798 -0.054088388
000200 07 5d 74 bd f3 6d 18 3c 5b 33 64 3d 5f 4f 02 3d
       -0.05965903 0.009303558 0.05571304 0.031813975
000210 29 20 3e bd 8f 8c 84 3d 8c 03 f1 bc 8a ef 8d bd
       -0.04641739 0.06472122 -0.029420637 -0.06930454
000220 f7 90 de 3b 1b 8e 5e bd 34 97 a6 bb 18 98 6b bd
       0.0067921835 -0.05433474 -0.005083943 -0.057518095
000230 32 61 59 bd ae 1f 96 3c 01 34 8e bd 6c 36 14 3d
       -0.05307121 0.018325653 -0.06943513 0.036184713
000240 7a ba d9 3b 95 29 f6 bc 59 59 4f bd 00 e9 1c 3b
       0.006644544 -0.030049125 -0.050622318 0.002394259
000250 30 44 08 bd 7c 56 89 3d 34 dc 17 bc 95 20 62 3d
       -0.033268154 0.06705949 -0.009268809 0.055206854
000260 66 93 5a bd ee 91 85 3d 98 f5 9d 3c 21 19 5e bc
       -0.053363226 0.065219745 0.019282147 -0.013555796
000270 29 ae 71 3d c5 e8 8d 3d 9e d4 3e bd 23 01 56 3d
       0.059003983 0.06929163 -0.046589486 0.052247178
000280 0f 06 ac 3c fa fa da 3c 54 78 85 3c 7d 90 60 bd
       0.020998983 0.026731003 0.016292728 -0.054825295
000290 65 2b 81 bc c4 e6 09 bd 84 04 50 bc bd 21 e4 bc
       -0.015767762 -0.03366734 -0.012696389 -0.027848119
0002a0 3b 53 64 bd e8 b1 3e 3d ae 9a 11 bd aa f3 87 bd
       -0.055743437 0.046556383 -0.035547905 -0.06638272
0002b0 74 72 82 3d 29 21 af 3c 2f f0 8d bd f0 b8 b9 3c
       0.063694865 0.021378117 -0.06930577 0.022671193
0002c0 86 9f 1e 3d 74 9f 44 3d cf c0 6f 3c 66 cf 04 3c
       0.038726352 0.04800363 0.0146333715 0.008106088
0002d0 1d b2 cc bc c5 40 6b 3d 8d 9e 75 3d 61 e6 13 bd
       -0.024987275 0.057434816 0.05996566 -0.03610838
0002e0 74 6c 66 bc 6f c5 38 3d ea 11 2e 3b a3 c3 60 3d
       -0.014063943 0.045110162 0.002656097 0.054874074
0002f0 bc 0d 6c bd 66 36 4b bc 2f 7d 7b 3d 74 88 49 3c
       -0.057630286 -0.012403106 0.06139868 0.012300599
000300 48 2c 3b 3d 7f f9 a2 3c c7 0d d8 3c fa c1 53 3d
       0.045696527 0.01989436 0.026373757 0.051698662
000310 c6 8a 58 bd ca 69 2f 3d be 81 32 3d 15 27 b5 3a
       -0.05286672 0.042825498 0.043580763 0.0013820851
000320 f3 b6 7e 3b 41 dc 11 bd 3a 19 5d 3d 9d 44 7c 3d
       0.003886637 -0.03561044 0.053979136 0.061588872
000330 1a 10 8f 3d 79 d8 e5 3c 93 45 81 3b cf 6a 7b bd
       0.06985493 0.028057324 0.0039450615 -0.061381157
000340 8a e2 9a 3c cc df 4e bd 5d 7d 13 bd 1e cd 91 3b
       0.01890685 -0.050506398 -0.036008228 0.0044495007
000350 b1 5c 57 3d 9f bc 25 3d 5d 46 81 bd 49 72 ee 3c
       0.05257863 0.040463086 -0.06312249 0.02910723
000360 eb d1 60 bd f6 a3 82 3d 84 65 41 3a 30 b3 a9 bc
       -0.054887693 0.06378929 0.0007377493 -0.020715326
000370 06 c9 12 bd 2b 8b 3c 3d 99 53 63 bd d2 c7 34 3d
       -0.035836242 0.04603116 -0.055499647 0.044135876
000380 5c d1 79 3d 2a f2 87 3d c1 ae f7 3c a8 a9 2a bd
       0.060990676 0.06637986 0.030234696 -0.041665703
000390 81 15 88 bd b1 c0 8c 3d b9 f5 d5 3b b7 da ef 3c
       -0.066447265 0.068726905 0.0065295366 0.029279096
0003a0 9a 06 20 bd cc eb 0e 3d 85 a9 52 bd 49 a0 18 3c
       -0.039068796 0.034892842 -0.051431198 0.009315559
0003b0 e6 b9 8c 3c 7c 8d 09 3d e7 34 81 3c a9 75 f0 ba
       0.017178487 0.033582196 0.015772296 -0.0018345612
0003c0 09 b0 60 3c ee a6 41 3d dd e5 15 bd c6 0e de bc
       0.013713845 0.047278337 -0.036596168 -0.027106654
0003d0 e8 d5 3a 3d 32 d5 d4 bb c5 22 34 3d ec 29 f4 3c
       0.045614153 -0.0064951414 0.04397847 0.029805146
0003e0 fa 07 27 3d 62 56 16 bd 57 b3 7e bc 85 ad 21 bb
       0.04077909 -0.036703475 -0.015545688 -0.0024670076
0003f0 29 94 2d bc ea 4e c6 3c f8 84 16 3d dc 95 4e 3a
       -0.010594406 0.024207551 0.036747903 0.0007880607

5.bias f4 [10]
000000 e8 4c a8 3c f6 25 3d bd cd f2 88 bc d7 08 25 bd
       0.020544484 -0.04617878 -0.016717339 -0.040291633
000010 4e 4a 7c bd 61 02 81 3d 1c 4c 53 3d 8a f8 07 3d
       -0.0615943 0.06299282 0.051586255 0.03319601
000020 b2 39 6a 3d d3 53 40 3d
       0.05718393 0.04695494
